data_rnn.pth (torch, 50271 bytes, 6 tensors)

lstm.weight_ih_l0 f4 [32, 301]
0	0x3fcc59f6	1.5964954
1	0x3e641c81	0.22276498
2	0x3f00f8b0	0.50379467
3	0x3f4dd2eb	0.8039996
4	0x3db2ffba	0.08740182
5	0x3fb5e4f3	1.4210495
6	0x3f02104d	0.50806123
7	0x3f2f9e2e	0.6860074
8	0x3ead81ec	0.33888185
9	0xbe1fb073	-0.15594654
10	0x3fca9c0b	1.582887
11	0x3edb5e28	0.42845273
12	0x3efd5ecb	0.49486384
13	0x3ec62dff	0.38706967
14	0x3d937e54	0.072018296
15	0x3ec391ef	0.38197276
16	0x3e71cb16	0.23612627
17	0x3f268605	0.6504825
18	0x3f3587f3	0.7091057
19	0x3f3dcffe	0.74145496
20	0x3f3f7c18	0.7479873
21	0x3ec131d1	0.3773332
22	0x3f230703	0.63682574
23	0xbb24e6d1	-0.0025161991
24	0x3e2d66a4	0.16933686
25	0x3f5e7aa1	0.86905867
26	0xbd5f1a90	-0.05446869
27	0x3da7ef8f	0.08199989
28	0x3f8506aa	1.0392659
29	0xbe05e224	-0.13074547
30	0x3f162b75	0.5866006
31	0x3e97e874	0.29669535
32	0x3efec4ea	0.49759609
33	0x3ed774b5	0.42081228
34	0x3f4910fd	0.7854155
35	0x3f9c1c92	1.2196219
36	0xbc52bdae	-0.012862606
37	0x3e85d03f	0.26135442
38	0x3f201148	0.6252637
39	0x3f688866	0.9083313
40	0x3fafc7d6	1.373286
41	0x3ee33a5e	0.44380468
42	0x3f89f0b8	1.0776587
43	0x3e9af4bd	0.30264845
44	0x3f9ebbc7	1.2401055
45	0x3ebeaa1d	0.3723916
46	0x3d6c9f6c	0.057769224
47	0x3f2fe281	0.6870499
48	0x3ed4512a	0.41468173
49	0x3f828001	1.0195314
50	0x3e4f6d39	0.20256509
51	0x3ec6f5bd	0.38859358
52	0xbe1d4924	-0.15359932
53	0x3db77ae4	0.089589864
54	0x3f00993b	0.5023381
55	0x3e3209f5	0.17386611
56	0x3dbefe62	0.093258634
57	0x3eba34dd	0.36368456
58	0x3ffe74a7	1.987935
59	0x3f67fc10	0.9061899
60	0x3dbe51b2	0.09292926
61	0x3f1cbd69	0.61226517
62	0x3f4f582a	0.809939
63	0x3f372f56	0.71556604
64	0xbe545286	-0.20734605
65	0x3efc1d8d	0.49241295
66	0x3e1e8295	0.154795
67	0x3f9c308b	1.2202314
68	0x3ee75967	0.45185396
69	0x3f9443e6	1.1583221
70	0x3f163f2a	0.5869013
71	0x3f240a42	0.6407815
72	0x3effaed9	0.49938086
73	0x3dcc8240	0.09985781
74	0x3dfcbc9b	0.12340661
75	0xbdc4357c	-0.09580514
76	0x3f2dc789	0.6788259
77	0x3f834798	1.0256224
78	0x3f59fb5b	0.85149163
79	0x3eb7edc9	0.35923603
80	0x3ebc41dc	0.36768997
81	0x3cc57aa9	0.02410634
82	0x3e0101fc	0.12598413
83	0x3e6c0b9a	0.230513
84	0x3f08c6b2	0.53428185
85	0x3eb986c2	0.36235625
86	0x3f0b2fb3	0.5436966
87	0x3e21334c	0.15742224
88	0x3cdb2c34	0.026754476
89	0x3fb153c3	1.3853687
90	0x3e1e6cb5	0.15471156
91	0x3f5614b3	0.83625335
92	0xbda37de8	-0.07982999
93	0x3ff0b6e7	1.8805817
94	0x3dc60684	0.096692115
95	0x3f5dfaad	0.86710626
96	0x3f244135	0.64162
97	0x3e89ffc7	0.26952955
98	0x3d61691f	0.055031892
99	0x3f77451b	0.9658982
100	0x3eedf942	0.4647923
101	0x3ecc24b9	0.39871767
102	0x3dc2aa3c	0.09505126
103	0x3f1eb592	0.61995804
104	0x3f06bce0	0.5263195
105	0x3fc0732f	1.5035151
106	0x3e2cb2ea	0.16865125
107	0x3f798001	0.97460943
108	0x3f2c2f6d	0.67259866
109	0x3f67986b	0.90466946
110	0x3e6fa0ce	0.23401186
111	0x3f8c76b7	1.0973729
112	0x3f6e3877	0.9305491
113	0xbc88d007	-0.016700758
114	0x3f88321c	1.0640292
115	0x3f2a424f	0.6650743
116	0x3f042116	0.51612985
117	0x3ddc7306	0.107641265
118	0x3f1fad85	0.62374145
119	0x3f08278d	0.5318535
120	0x3e7f898e	0.24954817
121	0x3f73af25	0.95189124
122	0x3e926543	0.28592882
123	0x3e8be70c	0.27324712
124	0x3f49cdd4	0.78829694
125	0x3f67d357	0.90556854
126	0x3c98cb6e	0.01865169
127	0x3eea3859	0.45746115
128	0x3ede5ffe	0.4343261
129	0x3f42fe7a	0.7616955
130	0x3f08b3b1	0.5339919
131	0x3f8ff007	1.1245126
132	0x3e6c061c	0.23049206
133	0x3ef65d1e	0.48117918
134	0x3f397e9c	0.72458816
135	0x3fa65054	1.2993264
136	0x3f1e7e6c	0.61911654
137	0x3f203acb	0.6258971
138	0x3f673abd	0.90324
139	0xbd953cb6	-0.0728697
140	0x3f804692	1.0021536
141	0xbdbf0b46	-0.09328322
142	0x3f287ed0	0.658185
143	0x3ee757a3	0.4518405
144	0x3f13a662	0.57675755
145	0x3f50e2ee	0.8159627
146	0xbc2f7e88	-0.01071132
147	0x3ed52b2c	0.416345
148	0x3e65aad7	0.22428451
149	0x3cddacbd	0.027059907
150	0x3e1b99f5	0.15195449
151	0x3f4c2239	0.7973972
152	0x3f5657e6	0.8372787
153	0x3e2baf64	0.16766125
154	0xbda297ea	-0.079391316
155	0xbe9789f3	-0.29597434
156	0x3f50b068	0.81519175
157	0xbec899a7	-0.39179727
158	0x3f34110f	0.7033853
159	0x3f6bbe8d	0.9208763
160	0xbbb98e04	-0.0056626815
161	0x3e9f9c6c	0.31174028
162	0x3ef11951	0.47089627
163	0x3e79f38f	0.24409316
164	0x3f3dc090	0.7412195
165	0x3f3c0f20	0.7346058
166	0x3fdd4158	1.7285566
167	0x3f3f023d	0.7461279
168	0x3f694f2e	0.91136444
169	0x3ebcde36	0.36888283
170	0x3ebbf0e1	0.36707214
171	0x3f1dc347	0.61626095
172	0x3f333cbc	0.7001455
173	0x3efe556e	0.49674553
174	0x3f47782d	0.7791775
175	0x3ede8b21	0.43465522
176	0x3e579ce1	0.21055938
177	0x3fa15120	1.2602882
178	0x3f072f55	0.528066
179	0x3f1b73c4	0.6072352
180	0x3db1f954	0.08690134
181	0x3f2238c7	0.63367885
182	0x3f262f1b	0.6491563
183	0x3f260771	0.64855105
184	0x3e31c02a	0.17358461
185	0x4010f23c	2.2647848
186	0x3ec30bae	0.38094848
187	0x3f068eff	0.52561945
188	0x3f120cfb	0.57051057
189	0x3e6ccbc3	0.23124604
190	0x3e98a1a6	0.29810828
191	0x3f043c0a	0.5165411
192	0x3f7fab8c	0.99871135
193	0x3dea1af8	0.11430925
194	0x3e8a29eb	0.26985106
195	0x3dc7181d	0.09721396
196	0x3f6889ea	0.9083544
197	0x3e922f26	0.28551596
198	0xbd1b7bd2	-0.03795988
199	0xbe0a66d0	-0.13515782
200	0xbe891280	-0.26771927
201	0xbe357b41	-0.17722799
202	0x3f019042	0.50610745
203	0x3e216d72	0.15764406
204	0x3f20a548	0.627522
205	0x3f4e800c	0.80664134
206	0x3eb5ae12	0.35484368
207	0x3cc85167	0.024452878
208	0x3ee767bc	0.4519633
209	0x3fe93cec	1.8221717
210	0x3dbcbf74	0.09216204
211	0x3e4cc4bc	0.19996923
212	0x3f3e661c	0.74374557
213	0x3f4c17b5	0.79723674
214	0x3e266cd6	0.16252455
215	0x3ea9050b	0.3301166
216	0x3f861b54	1.047709
217	0x3f919d8a	1.1376202
218	0x3ebb9ac5	0.36641517
219	0x3ea81384	0.3282739
220	0x3ed74d46	0.42051142
221	0x3f625b76	0.8842081
222	0x3f8ec92d	1.1155144
223	0x3f16c860	0.588995
224	0x3f618276	0.8808969
225	0x3fb4980e	1.4108903
226	0x3efef500	0.49796295
227	0x3f42bd9c	0.7607057
228	0x3f2afbb7	0.66790336
229	0x3eb9927c	0.3624457
230	0x3c14be04	0.009078506
231	0x3dff8e3b	0.124783
232	0x3fedc853	1.8576759
233	0x3f622ab0	0.88346386
234	0x3ef696b1	0.48161843
235	0x3d8963dc	0.067085
236	0x3c2661ec	0.010155182
237	0x3f96f47b	1.179336
238	0x3ed600df	0.4179754
239	0x3dbcf2d1	0.09226001
240	0x3ed27ade	0.41109365
241	0x3d92ff31	0.0717758
242	0x3f2db323	0.67851466
243	0x3ebf5cde	0.3737554
244	0x3e635cc2	0.22203353
245	0x3f9c35f0	1.220396
246	0x3ed7a52a	0.42118198
247	0x3f25ebd7	0.6481299
248	0x3f15ca80	0.58512115
249	0x3e4e4ff6	0.2014769
250	0x3f2eb996	0.6825193
251	0x3e6830cf	0.22674869
252	0x3f5d2fa8	0.8640084
253	0x3faa1e7f	1.3290557
254	0x3e7a6025	0.24450739
255	0x3f19f74a	0.6014296

lstm.weight_hh_l0 f4 [32, 8]
0	0x3e8854cf	0.26627204
1	0xbe88db79	-0.26729944
2	0xbe9e56dd	-0.30925646
3	0x3e8d17e9	0.27557305
4	0xbea6c751	-0.3257394
5	0xbe8bc0ba	-0.27295476
6	0xbe7121a3	-0.23547988
7	0x3e94964b	0.29020914
8	0x3e27af8e	0.16375563
9	0xbeaef852	-0.34173828
10	0x3eacc253	0.33742008
11	0x3eafe327	0.3435299
12	0x3cc55db0	0.024092525
13	0x3c07d980	0.008291602
14	0xbe5146f9	-0.2043723
15	0xbe9c532c	-0.30532205
16	0xbe8f7e84	-0.2802621
17	0x3e86cba3	0.26327237
18	0x3e8a58f5	0.27020994
19	0xbc1d0bc0	-0.009585321
20	0xbe192575	-0.14955695
21	0x3baefd40	0.0053402483
22	0xba863c00	-0.001024127
23	0xbdaf55dc	-0.08561298
24	0x3eb094ff	0.34488675
25	0x3dae6d8c	0.08516988
26	0x3ea52d4b	0.32261118
27	0xbd40fcd8	-0.04711613
28	0xbe1eb3ea	-0.1549832
29	0x3e30522a	0.17218843
30	0xbd97b270	-0.07407081
31	0x3e897f81	0.2685509
32	0xbb11f080	-0.0022268593
33	0xbe042780	-0.12905693
34	0x3e9ac80d	0.30230752
35	0x3e68f76a	0.22750631
36	0x3e5381e6	0.20655021
37	0xbe4c1022	-0.19928029
38	0xbe230703	-0.15920644
39	0x3e79ce0e	0.2439501
40	0x3e267932	0.1625717
41	0x3e38499e	0.17996833
42	0xbe15f1a5	-0.14642961
43	0xbea1c499	-0.31595305
44	0xbea64e9f	-0.32481858
45	0x3c4a61c0	0.012352407
46	0x3e96291b	0.29328236
47	0x3ea00ab5	0.3125817
48	0x3ea814bf	0.32828328
49	0xbe7e5bfc	-0.24839777
50	0x3ea71ea7	0.32640573
51	0x3cd2bf70	0.02572605
52	0xbe780c63	-0.24223475
53	0xbe8ec863	-0.27887258
54	0x3c6655c0	0.01405853
55	0x3d201508	0.039082557
56	0x3eb16151	0.3464456
57	0x3e973919	0.2953575
58	0x3e76403e	0.24047944
59	0xbd86141c	-0.06546804
60	0xbdeef144	-0.116671115
61	0x3e2b5a5e	0.16733691
62	0xbe1c4940	-0.15262318
63	0x3eadda71	0.3395572
64	0x3e5b036e	0.21388027
65	0xbe8274e8	-0.25479817
66	0xbe252ab0	-0.16129565
67	0x3d1b5808	0.03792575
68	0x3db28ab8	0.08717865
69	0xbdff49e6	-0.12465267
70	0xbdcfc0b0	-0.10144174
71	0x3db5482c	0.08851656
72	0x3e238eb2	0.15972403
73	0xbe5830a4	-0.21112305
74	0x3e7ff30a	0.24995056
75	0x3e78d706	0.24300775
76	0xbe30ff9a	-0.17285004
77	0x3e0a7908	0.13522732
78	0xbe0cbe3d	-0.13744445
79	0xbe37014e	-0.17871591
80	0xbe586642	-0.21132758
81	0x3b46db80	0.0030343235
82	0xbe326927	-0.17422925
83	0x3db08874	0.08619776
84	0xbe32e82b	-0.17471378
85	0xbe3113aa	-0.17292657
86	0xbe0fb751	-0.14034773
87	0xbd4b4648	-0.049627572
88	0x3e00084c	0.12503165
89	0x3e3d345e	0.18477008
90	0xbe383de1	-0.17992355
91	0x3e4b88c2	0.19876388
92	0x3e710232	0.23535994
93	0xbe80b442	-0.25137526
94	0xbd35fc68	-0.044430166
95	0x3e88077b	0.26568207
96	0x3e901b05	0.28145614
97	0x3e7d7f56	0.24755606
98	0x3eb11e3f	0.34593388
99	0x3c7c72c0	0.015408218
100	0xbea56a7d	-0.32307807
101	0xbe8dce8a	-0.2769664
102	0xbe956bfb	-0.29183945
103	0x3e0c56ec	0.13705033
104	0xbe81b7b0	-0.25335455
105	0x3d87c9f0	0.066303134
106	0xbd71b280	-0.05900812
107	0x3d657dc8	0.056028157
108	0x3d92f030	0.071747184
109	0xbc37fba0	-0.011229426
110	0xbe87ab03	-0.2649766
111	0xbe7a7554	-0.2445882
112	0x3ea2d9c9	0.31806782
113	0xbcdd0820	-0.026981413
114	0x3dffac9c	0.124840945
115	0xbdadf824	-0.08494595
116	0xbdd9a1de	-0.10626577
117	0x3d8cbfa4	0.0687249
118	0xbe6dd0a5	-0.23224123
119	0xbe859171	-0.26087525
120	0x3da0543c	0.078285664
121	0xbe954cf7	-0.29160282
122	0xbe713be0	-0.23557997
123	0x3e758336	0.23975834
124	0x3eb47c05	0.3525087
125	0xbe8e9732	-0.27849728
126	0xbe21f36a	-0.15815511
127	0xbe6f5db0	-0.23375583
128	0xbd9dc49c	-0.07703516
129	0x3ea60d7d	0.32432166
130	0x3e0ba09a	0.13635483
131	0x3d804764	0.06263617
132	0x3bc94fc0	0.00614354
133	0x3e83c495	0.25735918
134	0x3d847b30	0.06468809
135	0xbded3688	-0.11582667
136	0x3db08ae8	0.08620244
137	0x3da0d31c	0.07852766
138	0x3e8ee743	0.27910814
139	0xbd573de0	-0.052549243
140	0x3e23c38e	0.15992567
141	0xbce66800	-0.028125763
142	0xbe1a9d13	-0.15098982
143	0xbd8f5a84	-0.06999686
144	0xbe974f16	-0.29552525
145	0xbe6ef5a1	-0.23335887
146	0x3e30ab9a	0.17252961
147	0x3e7a655e	0.24452731
148	0xbde04ac6	-0.10951762
149	0xbd0301d0	-0.03198415
150	0x3dfbc73c	0.1229386
151	0xbc807480	-0.015680552
152	0xbd5befb0	-0.05369538
153	0x3e0489d6	0.12943205
154	0xbe7de412	-0.24794033
155	0xbe6dcaca	-0.23221889
156	0xbe71aab4	-0.23600274
157	0xbda80450	-0.082039475
158	0xbe70de76	-0.23522362
159	0xbbea8fc0	-0.0071582496
160	0xbe893f23	-0.26805982
161	0xbe5cce2c	-0.21563023
162	0x3e8a5251	0.27015927
163	0xbdeb5c2c	-0.1149219
164	0xbe57f045	-0.2108775
165	0x3e0e180c	0.1387636
166	0x3d5d2d40	0.053998232
167	0xbc4177c0	-0.011808336
168	0x3d3cebd0	0.046123326
169	0x3e0005fa	0.1250228
170	0x3da6025c	0.08105919
171	0x3e906b5b	0.28206906
172	0xbe9a867f	-0.30180737
173	0xbe5ce0cf	-0.21570133
174	0x3e5bbbf6	0.2145842
175	0x3ea22c41	0.31674388
176	0x3dedbcb8	0.11608261
177	0x3d901dc8	0.0703693
178	0xbeb1a99c	-0.34699714
179	0xbd375bb0	-0.044765174
180	0x3dd32c1c	0.103111476
181	0x3ea2d7e5	0.3180534
182	0x3d9b4968	0.075823605
183	0x3e9bc735	0.3042542
184	0xbea9de48	-0.331774
185	0x3e202de6	0.15642509
186	0x3e080f1e	0.13287017
187	0xbc099660	-0.008397669
188	0xbd894324	-0.06702259
189	0x3e825def	0.2546229
190	0xbe6e0832	-0.23245314
191	0xbde50df4	-0.11184302
192	0xbc6587e0	-0.014009446
193	0x3e02511c	0.12726253
194	0x3e8ae63b	0.27128777
195	0x3e5794e6	0.21052894
196	0x3e195982	0.14975551
197	0xbe450ee9	-0.19243969
198	0x3e95cf2f	0.2925963
199	0x3dbabc9c	0.09118006
200	0xbd153540	-0.036427736
201	0x3cf36a80	0.02971387
202	0xbe6464fe	-0.2230415
203	0x3d3f5ed8	0.04672131
204	0x3eb12489	0.34598187
205	0x3ea13c7d	0.3149146
206	0x3ddeae98	0.10873145
207	0x3d374d80	0.044751644
208	0x3e100566	0.1406456
209	0xbea1a90c	-0.31574285
210	0x3e8cb173	0.27479133
211	0xbce76660	-0.028247058
212	0x3e9a2e61	0.3011351
213	0x3e229036	0.15875325
214	0xbe8fb5aa	-0.28068286
215	0xbce85f80	-0.02836585
216	0xbe14d19f	-0.14533089
217	0x3e5fe57e	0.21864888
218	0xbe1463cf	-0.14491199
219	0x3d5338f0	0.05156797
220	0x3d38c6b0	0.04511136
221	0x3e963edb	0.2934483
222	0xbe0e97b4	-0.13925058
223	0x3ea403c7	0.32034132
224	0x3dc8039c	0.097663134
225	0x3e817f05	0.2529222
226	0xbd3e65d8	-0.046483845
227	0x3e1e9eaa	0.15490213
228	0xbe7b6ef2	-0.24554041
229	0xbc441580	-0.011968017
230	0xbeb48c74	-0.35263407
231	0x3e222cda	0.15837422
232	0xbe9229c0	-0.28547478
233	0xbde6b776	-0.11265461
234	0xbe12b65d	-0.14327379
235	0x3c5d4580	0.01350534
236	0x3c99a120	0.018753588
237	0x3dc8c934	0.098040015
238	0x3e05777a	0.13033858
239	0xbc66d620	-0.014089137
240	0xbe8ee88e	-0.279118
241	0xbe94694b	-0.28986582
242	0x3ddbad80	0.10726452
243	0x3d2a4188	0.0415664
244	0xbe68da6d	-0.22739573
245	0x3e6f45ba	0.23366442
246	0xbcda2360	-0.026628196
247	0xbd164f60	-0.03669679
248	0xbc9d7ba0	-0.019223988
249	0xbe44a59e	-0.19203803
250	0x3e1cef82	0.1532574
251	0xbd0b0890	-0.033943713
252	0x3e6168ce	0.22012636
253	0x3e127446	0.14302167
254	0xbda75368	-0.08170205
255	0x3ea38e2d	0.3194441

lstm.bias_ih_l0 f4 [32]
0	0x40cc97d5	6.393534
1	0x40d3b355	6.615641
2	0x40c714ca	6.2212877
3	0x40d03382	6.5062876
4	0x40acc8e8	5.3995247
5	0x404ca171	3.1973536
6	0x3ffbbee4	1.966763
7	0x40d62dcf	6.693092
8	0x3e2c30d6	0.16815504
9	0xbe97c318	-0.29641032
10	0xbe054976	-0.13016304
11	0x3dcb01e0	0.09912467
12	0xbe998689	-0.29985455
13	0xbe2ef364	-0.17085034
14	0x3e975129	0.29554108
15	0xbe2cc760	-0.1687293
16	0xbee7ce8d	-0.45274773
17	0x3e91d85c	0.28485382
18	0x3ea30c38	0.3184526
19	0x3de2214e	0.110415086
20	0xbf4b3622	-0.79379475
21	0xbf428f33	-0.75999755
22	0xbf0a7e79	-0.5409923
23	0xbeffd271	-0.49965242
24	0x40e2c3fd	7.0864244
25	0x40de4b7c	6.9467144
26	0x4079b0c5	3.9014142
27	0x40d79d63	6.7379622
28	0x40d272f9	6.5765347
29	0x40d5f20f	6.685798
30	0x402e2935	2.721265
31	0x406d4a5b	3.7076633

lstm.bias_hh_l0 f4 [32]
0	0x40d6c07a	6.7109957
1	0x40dd936f	6.9242473
2	0x40c06872	6.0127497
3	0x40dec92f	6.9620585
4	0x40ba2f92	5.818307
5	0x405ad4ef	3.4192464
6	0x401352d6	2.301931
7	0x40c67d83	6.2028213
8	0x3e2112b2	0.15729788
9	0x3e0a6e8e	0.13518736
10	0x3d9d7be4	0.07689646
11	0xbe4dcb28	-0.20097029
12	0xbc8393a0	-0.016061604
13	0xbe40e0f5	-0.18835814
14	0x3e6dd16e	0.23224422
15	0x3e3c8986	0.18411836
16	0xbf6df5b7	-0.92953056
17	0xbd5fa754	-0.054602936
18	0x3d2cd555	0.042195637
19	0x3e309f5c	0.17248291
20	0xbf0b1492	-0.5432826
21	0xbeeb7e6d	-0.45994893
22	0xbec9d331	-0.3941894
23	0x3dfe1966	0.12407188
24	0x40d2dc25	6.589373
25	0x40e5836a	7.1722918
26	0x407a49cc	3.9107542
27	0x40e8d5d8	7.276104
28	0x40d2ef11	6.591683
29	0x40cd3fd1	6.41404
30	0x4022d853	2.5444534
31	0x40818c67	4.048389

fc.weight f4 [72, 8]
0	0xc0920b34	-4.5638676
1	0x40dd0d5f	6.907882
2	0xc0ae337c	-5.4437847
3	0x40e556a3	7.166826
4	0xc0f52446	-7.660678
5	0x40938d5e	4.6110067
6	0xc0e9fd2a	-7.312154
7	0xc0e1d5b8	-7.0573387
8	0x40c8b128	6.2716255
9	0xc088efb4	-4.2792606
10	0x41093b36	8.576956
11	0x410ef145	8.933904
12	0xc0c1d9e0	-6.057846
13	0x40b0b615	5.522227
14	0x407726c1	3.8617404
15	0x40c8e2fc	6.277708
16	0x41110645	9.064031
17	0x41065f92	8.398333
18	0xc110cc4d	-9.049878
19	0xc04c579d	-3.1928475
20	0x40454650	3.0824165
21	0xc0ddf9c7	-6.9367404
22	0x40bfda0e	5.995368
23	0x41103d7c	9.015011
24	0xc0ce5a29	-6.448506
25	0xc0bab48b	-5.834539
26	0x40b864e8	5.7623177
27	0x40fbcd56	7.8688154
28	0x40ee999f	7.4562526
29	0x40f5643e	7.6684866
30	0x4133e49d	11.243314
31	0x404b8b4c	3.180377
32	0x40ca58f0	6.3233566
33	0x40d4f6c6	6.6551237
34	0xc09953d5	-4.7914834
35	0x40e0822a	7.015889
36	0x410d3c67	8.827247
37	0x410b6678	8.712517
38	0xc0cdd765	-6.4325433
39	0x40e4dd84	7.1520405
40	0xc09c61cc	-4.886938
41	0xc10830e0	-8.511932
42	0xc08e4c50	-4.4468155
43	0xc070ca1f	-3.7623365
44	0x40d242fe	6.5706778
45	0x4040bb75	3.0114415
46	0xc0c09926	-6.018695
47	0x40d8a8d7	6.7706103
48	0xc0140821	-2.3129961
49	0xc0d67ee4	-6.7029896
50	0x40a6aaef	5.208366
51	0x4103ed5f	8.245452
52	0x40bfd124	5.99428
53	0x410c398a	8.764048
54	0xc1370eaf	-11.441085
55	0x40eead27	7.4586368
56	0x4098b10f	4.7716136
57	0xc0b53f44	-5.663973
58	0x40d5aba1	6.677201
59	0xc04a2767	-3.158655
60	0xc12bc1ed	-10.734845
61	0xc07d60a4	-3.9590235
62	0xc0fb4747	-7.852451
63	0xc0ece246	-7.4026213
64	0xc08be003	-4.371095
65	0x40a4cfb2	5.1503534
66	0x40454fcc	3.0829954
67	0xc013d31d	-2.3097603
68	0xc15a063d	-13.626523
69	0xc0e63cd7	-7.1949267
70	0x3fa53664	1.2907224
71	0xc06e14d7	-3.720022
72	0xc049d671	-3.1537135
73	0x40d4bb04	6.647829
74	0xc0df1e06	-6.972415
75	0x40faef7c	7.841734
76	0x40d945ce	6.789771
77	0x408a44af	4.320884
78	0x40db7904	6.8585224
79	0xc0c087ad	-6.016562
80	0x40ced2ad	6.4632173
81	0x40f8eae0	7.7786713
82	0xc0afd129	-5.4942822
83	0x40f4aad9	7.6458554
84	0xc09658bb	-4.6983314
85	0xc0a45e07	-5.136478
86	0x40dd2656	6.9109297
87	0xc108ea1a	-8.557154
88	0xc0b167b5	-5.5439095
89	0x409b1d00	4.84729
90	0x3f086b76	0.5328897
91	0xbfe5cac9	-1.795251
92	0x4118ac89	9.542123
93	0xc081afa8	-4.0526924
94	0x40cda87a	6.426816
95	0xc00b3847	-2.17531
96	0xc0a7e84e	-5.2471075
97	0xc0e3eae2	-7.122422
98	0x40df730a	6.982793
99	0xc07aa620	-3.9163895
100	0x40a187f6	5.047847
101	0x40fe8d29	7.9547315
102	0xc10872c4	-8.528019
103	0xc0ae14da	-5.4400454
104	0xc04ef618	-3.2337704
105	0x409b2b0b	4.8490043
106	0xc0db9e64	-6.863085
107	0xc0ab6f47	-5.3573337
108	0x40a319d4	5.096903
109	0xc10a5fbc	-8.648373
110	0xc08ed23a	-4.4631624
111	0x40cf9225	6.48659
112	0xc0d77615	-6.7331643
113	0xc0d088bb	-6.5166907
114	0xc0f93748	-7.787998
115	0xc08e6c84	-4.4507465
116	0x41064308	8.391365
117	0x40bab4c7	5.8345675
118	0x40b39702	5.6121836
119	0xc0d00f4b	-6.501867
120	0x40e64239	7.195584
121	0xc08be9e0	-4.372299
122	0xc11f4b1a	-9.955835
123	0xc02e5f33	-2.7245605
124	0x4144623d	12.273984
125	0x401ae249	2.4200613
126	0x408bd790	4.370064
127	0x40a312a8	5.0960274
128	0xc098a1c3	-4.7697463
129	0xc0b3c8e1	-5.6182714
130	0xc00898e2	-2.1343312
131	0x410ab1ba	8.66839
132	0xc0c801fb	-6.2502418
133	0xc11d4575	-9.829457
134	0x4058dce9	3.3884833
135	0xc0cb6768	-6.356373
136	0xc0269ff9	-2.603514
137	0x40747c56	3.8200889
138	0x40ee4cde	7.446883
139	0x40acbbf2	5.3979425
140	0xc0d210c8	-6.5645485
141	0x413f8cde	11.971891
142	0xc11f4d6a	-9.9564
143	0x409b445b	4.852094
144	0xc0e070e8	-7.0137825
145	0xc0337dde	-2.8045573
146	0xc0c96b8c	-6.2943783
147	0xc117fe40	-9.499573
148	0xc0ac9e65	-5.3943353
149	0xc0c26473	-6.074762
150	0x409ec111	4.9610677
151	0x40ce8fac	6.455038
152	0x40d05b4a	6.5111437
153	0xc0b020ed	-5.5040193
154	0xc045bd32	-3.0896726
155	0x410a12fb	8.629634
156	0x410c0f04	8.753666
157	0x4133a6ee	11.228254
158	0x3fb5afb7	1.4194249
159	0xc082412c	-4.0704556
160	0xc09da345	-4.9261804
161	0xc0b96db1	-5.79464
162	0x40af82c4	5.4847126
163	0xc0a7a3d9	-5.238751
164	0x40f7e5c2	7.7467966
165	0xc0c0e68d	-6.0281434
166	0x408fc2ca	4.492528
167	0x4143b94c	12.2327385
168	0xc0bfc870	-5.9932175
169	0xc067a084	-3.619172
170	0xc0f2b831	-7.5849843
171	0xc083be22	-4.1169596
172	0xc080a1d4	-4.0197544
173	0xc13a9b6e	-11.662947
174	0xc102d887	-8.177863
175	0xc1036992	-8.213274
176	0xc0707aeb	-3.7575023
177	0x410308a4	8.18961
178	0xc084a489	-4.145085
179	0x413001bb	11.0004225
180	0x40bea8f7	5.9581256
181	0xc0e9a5d4	-7.3014927
182	0xc0cfe691	-6.4968953
183	0xbff7a517	-1.9347256
184	0xc07eb758	-3.9799404
185	0x40aa9205	5.3303246
186	0x40991690	4.784004
187	0xc050524e	-3.2550235
188	0x3f5189aa	0.81850684
189	0xc0b8199e	-5.753127
190	0xc16f1073	-14.941516
191	0xc0ea64cc	-7.3248043
192	0x40b3813c	5.6095257
193	0x410d6108	8.836189
194	0x40b402b1	5.6253285
195	0xc085f0a2	-4.185624
196	0xc08adf4d	-4.3397584
197	0x4117b2a7	9.481116
198	0x3d1214aa	0.035664238
199	0x4121cd1f	10.112578
200	0xc0ece13f	-7.402496
201	0xc0c2a563	-6.082689
202	0x40c6baeb	6.210317
203	0xc0618b5b	-3.5241306
204	0xc0d152fb	-6.5413795
205	0x40e43564	7.1315174
206	0x408b7125	4.3575616
207	0x41076df2	8.464342
208	0xc07e7f3d	-3.976516
209	0x40a584eb	5.1724753
210	0x40c7213c	6.222807
211	0x410eb259	8.918542
212	0x40b9cf00	5.8065186
213	0x40ce976d	6.4559846
214	0xc0cb0c4b	-6.3452506
215	0xc0b3f9b7	-5.624233
216	0xc0ac3ce1	-5.3824315
217	0xc1395193	-11.582416
218	0x4092f000	4.591797
219	0xc09a759f	-4.826858
220	0xbf6f84a0	-0.93561745
221	0xc048a6a7	-3.1351717
222	0x4029d5c6	2.6536727
223	0xc0aac8dc	-5.337019
224	0x40c9b27b	6.303037
225	0xc0f9350f	-7.787727
226	0x41246dc3	10.276797
227	0x3f8fd350	1.1236362
228	0x40a88ab9	5.266934
229	0xc08b9733	-4.362207
230	0xc0d22656	-6.5671797
231	0x4102a6a9	8.1656885
232	0x41353392	11.32509
233	0x410e3311	8.887467
234	0x406a6758	3.6625576
235	0xc0624b18	-3.5358334
236	0xc0e6fc95	-7.218333
237	0x40274419	2.6135314
238	0x405eca5f	3.4811018
239	0xc0efa2d5	-7.488627
240	0x410aebec	8.682598
241	0x40b92155	5.785319
242	0x4104ecae	8.307783
243	0xc021fbd6	-2.5309958
244	0x40a861f1	5.2619557
245	0x40e01658	7.0027275
246	0xc0fbb435	-7.865748
247	0xc04c777d	-3.194793
248	0x40bc95e9	5.8932996
249	0xc10b6f1c	-8.714626
250	0xbf9fbc9f	-1.2479438
251	0xc08d24c2	-4.410737
252	0x411115b9	9.067803
253	0xc01b2088	-2.4238605
254	0xc09c8ed0	-4.892433
255	0xc0beed69	-5.9664807

fc.bias f4 [72]
0	0xbff20fdc	-1.891109
1	0xc02e107a	-2.7197556
2	0xc08dc7eb	-4.430654
3	0xc0551eb5	-3.3299992
4	0xbf872932	-1.0559447
5	0x3d80b725	0.06284932
6	0xc0439a97	-3.0563104
7	0xc08b88ff	-4.360473
8	0xc051dd6b	-3.2791393
9	0xc0091d5b	-2.1424167
10	0xc09a2c7a	-4.8179293
11	0xbfa9e524	-1.3273053
12	0xc06a45e2	-3.6605153
13	0xbfc6668f	-1.5500048
14	0xc0c7175e	-6.2216024
15	0xc026a395	-2.6037343
16	0xc04cc3f7	-3.1994607
17	0xc01618f2	-2.3452725
18	0xc0a68612	-5.203866
19	0xbff43de9	-1.9081393
20	0xc0952513	-4.6607757
21	0xc0abd153	-5.3693023
22	0xbfd7780f	-1.6833514
23	0xc06d3bb4	-3.706769
24	0xc010234a	-2.2521539
25	0xc0796c1c	-3.8972235
26	0xbedcd35a	-0.43129998
27	0xbff7c203	-1.9356083
28	0xc0109aad	-2.2594407
29	0xc08c8e6c	-4.3923855
30	0xc00782a2	-2.1173482
31	0xbf474f02	-0.7785493
32	0xc062f13f	-3.5459745
33	0xc02f984b	-2.7436702
34	0xc07c2cb8	-3.9402294
35	0xc0abe455	-5.3716226
36	0xc025b9d4	-2.589467
37	0xc091ea7b	-4.559873
38	0xc06242e7	-3.5353334
39	0xbf3c205f	-0.73486894
40	0xc09c23ad	-4.879355
41	0xc0747a74	-3.819974
42	0xc0b4b0c6	-5.646579
43	0xc03acf65	-2.9189084
44	0xc00bbc48	-2.1833668
45	0xc08dc91a	-4.4307985
46	0xc06334b8	-3.5500927
47	0xc0665b27	-3.5993135
48	0xc082a258	-4.0823174
49	0xc04959d4	-3.1461077
50	0xc0a72793	-5.223581
51	0xc00f4707	-2.2387102
52	0xc041aee7	-3.0263002
53	0xbfb443fd	-1.4083248
54	0xbffba557	-1.9659833
55	0xbff93fc9	-1.9472591
56	0xc02cccf2	-2.7000089
57	0xbed50a25	-0.41609302
58	0xc03ce215	-2.951299
59	0xc0971301	-4.72107
60	0xc0528d83	-3.2898872
61	0xc060570e	-3.5053134
62	0xbfe0af20	-1.7553444
63	0xc0c20549	-6.063145
64	0xc064b796	-3.5737052
65	0xc06159ae	-3.5210986
66	0xbf27a91f	-0.65492433
67	0xc0374531	-2.863598
68	0xc0449d00	-3.0720825
69	0xc0719d82	-3.7752385
70	0xc0b25ba1	-5.573685
71	0xc0874940	-4.2276917
